tensorflow to onnx/output/iris_model.onnx (onnx, 2437 bytes, 6 tensors)

sequential_4/dense_14/MatMul/ReadVariableOp:0 f4 [10, 3]
000000 97 fe 87 bf 4f ec 00 bf 42 1b ac be 9b 47 f2 be
       -1.062457 -0.5036058 -0.33614546 -0.47320256
000010 e4 14 26 bf 3c c7 d5 bd 14 2f 3b 3f 6b db 98 3d
       -0.64875627 -0.104383916 0.7311871 0.07463726
000020 31 f9 8e bf 05 6a 6d bf 73 05 8f be 75 97 e4 be
       -1.1169797 -0.927399 -0.27933845 -0.44646803
000030 b6 fb d3 bd f2 e7 52 3d 74 ce e8 bd d0 cd 06 3e
       -0.103507444 0.05149073 -0.11367503 0.13164449
000040 60 5a 6d 3d c0 97 3e 3e 62 c9 19 3f 98 06 6f 3e
       0.057947516 0.18612576 0.6007291 0.23342359
000050 b4 7b 40 be 0e 97 b5 be 60 b4 15 bf 5f 1d 02 3f
       -0.18797189 -0.35466808 -0.58478355 0.50826067
000060 e7 51 f6 3e b8 67 9b 3e 15 ff 91 be ea a3 fe be
       0.48109362 0.3035257 -0.28514925 -0.49734432
000070 21 bb cf 3e 3a 16 3e 3f
       0.40572456 0.74252665

sequential_4/dense_14/BiasAdd/ReadVariableOp:0 f4 [3]
000000 97 3f 9e bc 2b 73 8e 3d 24 9d 89 bd
       -0.019317431 0.0695556 -0.06719425

sequential_4/dense_13/MatMul/ReadVariableOp:0 f4 [10, 10]
000000 f1 2a f8 be 22 b5 6e be f0 98 ec bd 72 12 be 3e
       -0.48470262 -0.23311284 -0.11552608 0.37123448
000010 98 2f 81 3e 1c 64 9e bd 20 b6 90 be e8 c4 ac be
       0.25231624 -0.07733938 -0.2826395 -0.33743978
000020 a6 02 09 be 44 c2 68 3e b2 26 97 3d 50 83 6d 3d
       -0.13379917 0.22730356 0.073804274 0.057986557
000030 26 8a 01 3f b3 3b 39 3d 1a 8f 9c 3e cc 7e 02 be
       0.5060142 0.04522295 0.30577928 -0.12743682
000040 f0 fd 2b 3d c3 fc 3c bf 02 11 32 3f 0a ae 07 3c
       0.04199022 -0.73823184 0.695572 0.00828124
000050 f0 3b 05 bd e6 34 cf 3e de b5 a7 3e 2e 39 ca be
       -0.032527864 0.40470046 0.3275594 -0.3949675
000060 62 c8 b0 3e 30 07 fc 3d 20 51 5f 3e b6 27 05 bf
       0.3452788 0.123060584 0.2180829 -0.5201372
000070 98 ac 46 3e 64 95 88 3e 8e 5b d4 3e a8 fc 99 3e
       0.19401777 0.26676476 0.414761 0.30075574
000080 e0 80 f3 3c 26 9a 73 be 52 67 a9 be 8a 10 23 be
       0.029724538 -0.23789272 -0.3308664 -0.15924278
000090 c6 5c 84 3e 12 7a 3d be ac 90 fc bd 5f 64 97 be
       0.2585203 -0.18503597 -0.123322815 -0.29568765
0000a0 40 df d3 bd 14 ff ab bd 90 28 39 be 80 77 d9 3b
       -0.10345316 -0.08398262 -0.1808188 0.00663656
0000b0 40 1c 01 bf b8 8f 7b 3e 58 52 ca 3d dc 65 00 3f
       -0.5043373 0.24566543 0.09878987 0.50155425
0000c0 95 47 de be cc 38 08 3f bf da 07 bf 55 b0 0f bf
       -0.43413988 0.53211665 -0.53068155 -0.56128436
0000d0 22 0a 87 3f f1 9d d9 3d 10 2f ed be 00 36 d4 3a
       1.0549967 0.10625828 -0.46324968 0.001619041
0000e0 04 d6 5b be 1e 5b b1 be fb 58 4a 3e b1 dc 63 bd
       -0.21468359 -0.3463983 0.19760506 -0.05563039
0000f0 08 87 ef ba a3 06 9f be 4e 58 5c 3f 8c b9 9a bd
       -0.0018274495 -0.3105975 0.8607224 -0.075549215
000100 01 be b6 3e c6 d2 34 be 80 6f c4 bb 5f 72 d0 be
       0.35691836 -0.17658529 -0.005994737 -0.40712258
000110 d8 14 be 3e 0d 7e 19 bf 00 f4 4e bb f2 d1 bb 3e
       0.37125278 -0.59957963 -0.003157854 0.36683613
000120 32 b1 ba be 1c 6b 7c 3e 68 4d 4d 3e 62 8f 04 be
       -0.36463314 0.24650234 0.2004906 -0.12945321
000130 0e 0e ac be 40 bf 92 3d 8c 20 7d be 5e 17 82 3e
       -0.33604473 0.07165384 -0.24719447 0.25408453
000140 65 0e 68 3f c8 df 45 3e e7 aa 3b be b8 5d 44 3f
       0.90646964 0.19323647 -0.18326913 0.76705503
000150 83 ea 1f 3e 40 ef 71 3c f9 e7 cc be ca 05 30 3e
       0.15616803 0.014766514 -0.4002073 0.17189708
000160 07 c5 7a be cc 7e ba 3d 1b 85 de 3e a0 c6 3f 3e
       -0.24489222 0.09106216 0.43460926 0.18728113
000170 ab 46 83 bd bd 5f 07 3f 7a e1 15 bf 45 cd 05 bf
       -0.06409963 0.5288046 -0.58547175 -0.5226634
000180 ac e5 9f be 7c 5b f7 3e b7 61 78 3e e3 59 40 3f
       -0.31229913 0.48311985 0.24256025 0.75137156

sequential_4/dense_13/BiasAdd/ReadVariableOp:0 f4 [10]
000000 60 2a c2 3d f8 f1 c1 bd 76 43 b2 3d 39 16 67 3d
       0.09480739 -0.0946998 0.087042734 0.056417678
000010 ed f5 f4 bd 00 00 00 00 00 00 00 00 ae 1e f5 bd
       -0.11960969 0.0 0.0 -0.11968742
000020 b0 2b 89 3d 76 4f 14 3e
       0.06697786 0.14483437

sequential_4/dense_12/MatMul/ReadVariableOp:0 f4 [4, 10]
000000 7d 5d 03 bf bb 40 11 3f e0 40 9a bd 80 74 09 be
       -0.51314527 0.56739396 -0.07531905 -0.13423347
000010 4c d3 0a bf c7 57 fc 3e 67 33 77 3e 4a 92 a3 be
       -0.54228663 0.4928572 0.24140702 -0.31947547
000020 c9 06 b4 3d 1e e2 16 bd 3c eb 67 be 8b 4d 18 3f
       0.08790357 -0.036836736 -0.22648329 0.5949332
000030 98 f8 2e 3e 48 73 db 3d af 91 9e be d0 dd d1 3e
       0.17087018 0.107153475 -0.30970523 0.40989542
000040 5f c2 45 3f c0 2a dc bd ce 75 87 be d5 b5 89 3d
       0.7724971 -0.107503414 -0.26457065 0.06724135
000050 7a 9b 79 be 75 4e 3c bf 89 89 09 bf c8 9c 13 be
       -0.24375716 -0.73557216 -0.53725487 -0.14415276
000060 ec 69 d3 3e d1 31 07 bf 7a 07 07 bf 0a 1c e1 be
       0.4129175 -0.5281039 -0.52745783 -0.43966705
000070 58 e7 db 3e 1f 12 5f 3f 98 bc c2 be 77 92 c3 bb
       0.4294994 0.87137026 -0.3803451 -0.0059683877
000080 f4 b9 9f be c0 c9 86 3e 8e 1f 38 be a8 b1 28 bf
       -0.31196558 0.26325798 -0.17980787 -0.6589608
000090 1d e2 f1 be ee d5 1c 3f 1d 2c e5 3e 6c 56 75 3f
       -0.47242823 0.6126393 0.44760218 0.95834994

sequential_4/dense_12/BiasAdd/ReadVariableOp:0 f4 [10]
000000 00 00 00 00 85 fd d1 3d 00 00 00 00 00 00 00 00
       0.0 0.10253433 0.0 0.0
000010 00 00 00 00 d8 85 94 3e 31 ed 81 3e 00 00 00 00
       0.0 0.29008365 0.25376275 0.0
000020 00 45 ec bd 86 c2 ac 3d
       -0.11536598 0.0843554
