pytorch to onnx/output/iris_model_pytorch.pth (torch, 3318 bytes, 6 tensors)

fc1.weight f4 [10, 4]
0.27189058 0.6165324 -0.5750943 -0.15854597 -0.024001392 0.5489557 -0.03856162 -0.40199682
0.35207596 0.33523095 -0.61152923 -0.24125606 0.6627668 0.11994709 -0.20193334 0.046688695
0.21660627 -0.2701543 0.67886364 0.63494164 -0.27116758 0.37497455 -0.2731227 0.10479267
-0.45652324 0.144876 0.08004272 0.21728462 -0.39419872 0.110393524 0.24914318 -0.26807404
0.12355505 -0.12592733 0.56276363 0.2176741 -0.49780947 0.48146236 -0.4242531 0.11987579
00000000: 3e35 8b3e 11d5 1d3f 6139 13bf e059 22be
00000010: 919e c4bc 5c88 0c3f caf2 1dbd 87d2 cdbe
00000020: 4d43 b43e 64a3 ab3e 2e8d 1cbf d40b 77be
00000030: 16ab 293f d2a6 f53d 9dc7 4ebe a53c 3f3d
00000040: 09ce 5d3e aa51 8abe 02ca 2d3f 898b 223f
00000050: 7ad6 8abe aafc bf3e bdd6 8bbe 8a9d d63d
00000060: 6abd e9be 605a 143e 70ed a33d dc7f 5e3e
00000070: 6ad4 c9be 0016 e23d 641f 7f3e 0041 89be
00000080: 6e0a fd3d 18f3 00be 4711 103f f6e5 5e3e
00000090: e2e0 febe 3c82 f63e b437 d9be 7081 f53d

fc1.bias f4 [10]
0.119469866 -0.09898345 0.67653584 0.6612076 0.3304055 0.13158578 0.4135908 0.47822708
-0.64535767 -0.18669218
00000000: 9eac f43d d6b7 cabd 7431 2d3f e744 293f
00000010: e92a a93e 6cbe 063e 2cc2 d33e 2eda f43e
00000020: 2936 25bf 3c2c 3fbe

fc2.weight f4 [10, 10]
0.27327442 -0.08747449 -0.062128287 -0.24118315 -0.30966008 -0.31153145 -0.08840738 -0.2281848
0.26258764 0.18893877 0.06510857 0.15937607 -0.13077673 0.07006026 -0.12938978 -0.21496485
-0.030988336 0.17752117 -0.21345259 -0.044364244 -0.036187273 0.2500314 0.50915796 0.14881395
-0.031801406 0.07090208 -0.13832876 -0.2741663 0.15817295 -0.0892037 -0.52398634 -0.07922208
-0.81097883 0.37079373 0.87683 0.04539994 -0.07278581 -0.23224932 0.31885412 0.2223666
-0.8784275 -0.1905356 -1.1474973 0.30893824 0.20761065 0.31937894 -0.15229572 0.12826145
0.40586 0.039356917 0.3874666 -0.22535405 0.51857096 0.28479314 -0.142707 -0.25284618
-0.06182763 -0.23041992 0.07805658 -0.06845243 -0.11993986 0.0069248066 -0.3542768 0.17095548
0.2988946 0.09629739 0.27253625 0.19706443 -0.17969695 0.056910545 1.0259463 0.26443666
0.64763176 0.51209974 -0.35218972 -0.13989818 -0.040771425 -0.04258734 -0.21175483 -0.14829627
0.6016698 0.18037356 0.8424905 0.2904354 -0.15895043 -0.12947355 -0.24162465 -0.29634735
-0.16589661 0.1704643 -0.03578177 -0.16101672 0.0106010735 -0.22947851 -0.101367965 -0.24690321
-0.015026063 0.019256026 0.30109903 -0.27554226
00000000: a0ea 8b3e d325 b3bd 3b7a 7ebd b7f8 76be
00000010: c48b 9ebe 0d81 9fbe ee0e b5bd 47a9 69be
00000020: e371 863e 2a79 413e a457 853d 7b33 233e
00000030: 56ea 05be c17b 8f3d c17e 04be bf1f 5cbe
00000040: 40db fdbc 1cc8 353e 5193 5abe 48b7 35bd
00000050: 1b39 14bd 1e04 803e 2d58 023f af62 183e
00000060: 3142 02bd 1c35 913d 0ea6 0dbe 865f 8cbe
00000070: 17f8 213e 6eb0 b6bd f823 06bf 303f a2bd
00000080: 4f9c 4fbf add8 bd3e ee77 603f 4af5 393d
00000090: ba10 95bd c4d2 6dbe d940 a33e 12b4 633e
000000a0: a0e0 60bf c41b 43be 31e1 92bf 272d 9e3e
000000b0: e397 543e a385 a33e 69f3 1bbe f856 033e
000000c0: e2cc cf3e b834 213d 0662 c63e 36c3 66be
000000d0: 11c1 043f 68d0 913e c921 12be 0e75 81be
000000e0: f83e 7dbd 33f3 6bbe 21dc 9f3d ca30 8cbd
000000f0: 08a3 f5bd 7de9 e23b c563 b5be f40e 2f3e
00000100: b708 993e 9137 c53d df89 8b3e 42cb 493e
00000110: 7a02 38be 081b 693d 3552 833f 3e64 873e
00000120: 32cb 253f f818 033f 3652 b4be 7841 0fbe
00000130: f0ff 26bd 1070 2ebd 42d6 58be fada 17be
00000140: 0807 1a3f d9b3 383e 75ad 573f f3b3 943e
00000150: e7c3 22be b794 04be 746c 77be d7ba 97be
00000160: cde0 29be 328e 2e3e e88f 12bd 91e1 24be
00000170: 20b0 2d3c 6afc 6abe 029a cfbd 32d4 7cbe
00000180: e02f 76bc d0be 9d3c a729 9a3e e013 8dbe

fc2.bias f4 [10]
0.18166403 -0.18422735 -0.29686993 0.4161746 0.16688244 -0.1924322 0.24012826 0.47378954
0.09942685 -0.30633992
00000000: 2306 3a3e 18a6 3cbe 56ff 97be d614 d53e
00000010: 3be3 2a3e f20c 45be 2fe4 753e 8b94 f23e
00000020: 4ea0 cb3d 96d8 9cbe

fc3.weight f4 [3, 10]
-0.2695564 0.028628776 -0.116651826 -1.0019283 -0.4317122 -0.019299576 -0.5449162 0.8006018
0.47159734 0.20479468 0.18940696 0.26441044 0.08843709 -0.024450023 -0.35560057 0.38762933
0.051419385 0.2716798 -0.16305666 0.25798497 0.25405625 0.04443115 -0.15542983 0.20188989
0.338298 -0.4734686 -0.020573067 -1.2694309 -0.835198 -0.25471613
00000000: 4c03 8abe e586 ea3c 27e7 eebd 303f 80bf
00000010: 6209 ddbe 251a 9ebc a17f 0bbf 3df4 4c3f
00000020: 3575 f13e b2b5 513e e6f3 413e ce60 873e
00000030: 811e b53d 6a4b c8bc 4711 b6be 5a77 c63e
00000040: 229d 523d 9d19 8b3e 53f8 26be 9b16 843e
00000050: a913 823e 70fd 353d ff28 1fbe 39bc 4e3e
00000060: 6535 ad3e 7a6a f2be d988 a8bc b67c a2bf
00000070: 89cf 55bf 276a 82be

fc3.bias f4 [3]
0.17192683 0.22380869 0.051585283
00000000: 960d 303e 1b2e 653e 174b 533d
