pytorch to onnx/output/my_dynamic_model.onnx (onnx, 256610 bytes, 10 tensors)

conv1.weight f4 [6, 1, 5, 5]
00000000: 68e0 b53c 72f1 e43d 059e 30be 0964 393e
00000010: c453 90bd ae79 8f3d 129c 3cbe 68ce 68bd
00000020: 33a1 46be 4eaa 9a3d 4341 39be cd7f 1ebe
00000030: e15e 243e ad5c 35be 5b0e 1a3e 7e47 1fbe
00000040: 5225 913d e76c 2e3e d25d 3bbe d4a8 76bd
00000050: cbe5 12be dbe7 22be ed23 05be bdec a6bd
00000060: 66b1 8d3d 60e1 7f3c d436 643d 0ac7 9c3d
00000070: 43c8 283e 37d6 f9bd 2656 f23d 3a3f be3d
00000080: 5b8b 083e 7239 893d 48c5 66bd a068 263d
00000090: 3ab9 febd 68b9 fd3c 6718 abbd 003f cc3a
000000a0: 7683 bd3d 2926 0d3e 92d0 a63d 3ddc 09be
000000b0: c2d8 b93d 4066 d7bc 6717 aabd 79b0 463e
000000c0: 08db 2ebe 82c0 ca3d c3ae 073e 639d 2a3e
000000d0: ce29 a73d 9182 193e dca0 7b3d 682a 333d
000000e0: 72f1 c93d f896 1cbd ec5e 35bd 28c4 a2bc
000000f0: 3ca8 6e3d 864f 963d 5f7a 38be 0e85 22be
00000100: 18d8 12be d7c5 083e b489 373d a675 8b3d
00000110: 1849 d3bc b8ec 7cbd 80b1 50bd c045 b13c
00000120: c9d7 453e 6266 d43d e834 13be 2066 92bd
00000130: e006 02bc 2d05 c1bd 8964 443e 2692 8f3d
00000140: e0f2 0fbd 9008 d13c 77bb 3a3e 6897 d83c
00000150: e2b2 b53d 30fd 11be 4154 273e 1a86 efbd
00000160: e941 243e 80d3 7a3c 1ebb a43d 2a9d 31be
00000170: 5d77 373e 0c8d 0f3d 5b67 323e de41 ef3d
00000180: 52e3 9e3d 0075 3a3a 675e 123e 40df 70bd
00000190: 3937 283e d0e3 20bc ba9f d63d ba4b 86bd
000001a0: f209 933d c9b8 3f3e 4a06 0fbe ea8b ba3d
000001b0: 274b 30be 4077 09bd 6cf8 563d a457 783d
000001c0: dca4 7b3d 88ca 6fbd 4053 d9bc 6633 b63d
000001d0: 8c50 7cbd cc97 6b3d 2062 6c3c dc92 02be
000001e0: f86c 08bd 26c6 10be 78e6 72bd 3a06 b1bd
000001f0: 18c8 53bd 0dc0 46be fd1c d6bd 0715 aabd
00000200: b0e7 8ebd 936e 493e 988a 24be f591 203e
00000210: e84f 0ebe 5a87 20be 7ba8 353e 3395 45be
00000220: 52ba fe3d f484 2ebd a3ba d9bd a6ea 97bd
00000230: 599a 403e 4010 f1bd fa49 e6bd bab3 d2bd
00000240: 5503 463e 0351 cebd 088b 11be 2a95 be3d
00000250: b311 213e a05b e03b
0.022201732 0.111788645 -0.1724778 0.18104567 -0.07047227 0.070056304 -0.18418911 -0.05683747
-0.1939743 0.07552014 -0.18091302 -0.1547844 0.16051818 -0.17711134 0.15044539 -0.15554616
0.070871964 0.1703373 -0.18297508 -0.0602196 -0.14345472 -0.15908758 -0.13001986 -0.08150623
0.06918602 0.015617698 0.05571635 0.07655151 0.16482644 -0.12199061 0.11832838 0.09289403
0.1333441 0.0670041 -0.056340486 0.040627122 -0.12437673 0.030972198 -0.08354264 0.001558274
0.0925359 0.13784088 0.081452504 -0.1346292 0.090745464 -0.026293874 -0.08305245 0.19403256
-0.17075741 0.09899999 0.1325026 0.16661601 0.081622705 0.14991213 0.061432704 0.043741614
0.09860505 -0.038229913 -0.044279978 -0.019868925 0.05826591 0.07339387 -0.18015431 -0.15871069
-0.14340246 0.1335672 0.04480906 0.06809549 -0.02579169 -0.06174919 -0.050950527 0.021639705
0.19320597 0.103710905 -0.14375651 -0.07148385 -0.007936209 -0.09424815 0.19178976 0.070102975
-0.035143733 0.025516778 0.18235575 0.026439384 0.0887201 -0.1425674 0.16340734 -0.116955
0.16040768 0.015309215 0.08043502 -0.1734511 0.17916627 0.035046622 0.1742224 0.11682485
0.07758202 0.0007112771 0.14293824 -0.058806658 0.16427316 -0.00981994 0.10479684 -0.065574124
0.07179631 0.18722834 -0.13967243 0.09108718 -0.17216168 -0.03356099 0.052483007 0.060630456
0.06143652 -0.05854276 -0.026528955 0.08896522 -0.061600253 0.05751781 0.014427692 -0.12751335
-0.033307046 -0.14138088 -0.059301823 -0.08643766 -0.051704496 -0.19409199 -0.10454748 -0.08304792
-0.06977785 0.19671087 -0.16068494 0.15680678 -0.1389767 -0.15676633 0.17740051 -0.19295196
0.124378815 -0.042607263 -0.10631301 -0.074178025 0.18808879 -0.117706776 -0.11244579 -0.10288186
0.19337209 -0.100740455 -0.14213192 0.093057945 0.15729408 0.00684686

conv1.bias f4 [6]
00000000: da02 c03d aea9 8c3d e278 db3d b09e e7bd
00000010: 6c99 2d3d 3bc3 323e
0.09375544 0.06868301 0.10716416 -0.11309564 0.042382643 0.17457287

conv2.weight f4 [16, 6, 5, 5]
00000000: 0427 54bd 4070 723d b26a 96bd 7194 20bd
00000010: 3002 3e3d f446 43bd acca a43d 81c2 56bd
00000020: 488d 8dbd 8ac3 72bd af5f 55bd 4890 ffbc
00000030: 68f1 433d b08b 523d 5efa bebc 8066 e93a
00000040: 2813 85bc 7d23 2ebd 64e9 3b3d 20df 373d
00000050: 8096 89bb f0f8 fabc c0fd 0e3d a0a6 a03d
00000060: 40a4 51bd b838 7dbc 3033 893d de6e 27bd
00000070: 6033 69bd 3430 a2bd e836 06bc b2f1 873d
00000080: 9083 593d a889 dd3c 649e 993c 145e 403d
00000090: 483f ad3c d036 eb3c 4c90 a3bc ac38 57bd
000000a0: 7030 38bc 9aa8 843d 542b c33c e8df 153c
000000b0: 3570 12bd 8443 8f3d 60f5 69bc ecce 903d
000000c0: 20fe e03b 3360 34bd ef44 97bd f262 b9bc
000000d0: 02a6 8c3d 7774 98bd 4ccf e5bc f0b0 943b
000000e0: 7803 273d 44c5 c73c f0c6 893c bc8b 6b3d
000000f0: dc6e 753d 0c74 84bd b8cb 313c c6fa 8dbd
00000100: 38a6 3b3d 008b e43a 6d23 a3bd f25e 093d
00000110: f49f 023d 35db a0bd 90d6 563c 00d0 2f3d
00000120: c4c6 36bd efe9 2fbd a610 833d 4884 4e3c
00000130: 1836 9bbd 2e7d 67bd 35fe 8ebd 6466 5fbd
00000140: 2831 5b3d 72ff 0fbd 7092 153d fbd3 8cbd
00000150: 84e3 a5bd a041 123d 3849 2b3d 5238 71bd
00000160: 7c73 8fbd 80c6 e23c 888a df3c 4501 9bbd
00000170: 76c1 79bd 8d40 39bd 1803 6cbd 9e27 233d
00000180: 5836 58bc dc9b 7cbd 34a0 9c3d 58ff 693c
00000190: e60e 283d 7186 82bd 5c34 833d 040a a03d
000001a0: 5a3b 053d b3e1 54bd 4067 98bd b001 e4bc
000001b0: 3086 f43b 4022 323d b0b5 cd3b 2496 a5bd
000001c0: ccad 03bd 8e4d 223d fc07 7c3d ea42 55bd
000001d0: 34fc a03d 97fa 30bd ebed 00bd 7ed3 6abd
000001e0: a0a3 67bc d81c 2c3c 9bd9 3ebd ae1c 9c3d
000001f0: 64da b53c faab 9ebd 98dc 383d efaa 28bd
00000200: c4a6 7f3d ca3b d1bc b80c 3e3d 180b 1cbc
00000210: f889 97bd d807 953d 8070 383c 2658 993d
00000220: 1a4a 8a3d a0ca 7b3d bc62 61bd 661d 0c3d
00000230: 50ef fe3c 6a8c 8bbd 98dd 443c 2c1a 953d
00000240: 5a7f 1bbd 20fd a73b e434 413d 5016 343c
00000250: 9479 363d 7ca0 50bd 3c17 ed3c 1d16 19bd
00000260: b86b 103d 483c 9f3c ea14 05bd 68b3 8cbd
00000270: 60fe a93b c0e8 54bd 695e 2dbd 002a 8bbc
00000280: 54fa 5d3d 606c 673d a7b7 7dbd 58c6 57bd
00000290: f484 9cbd 322f 55bd 4227 013d e89c 1bbc
000002a0: a907 45bd 8cf8 1c3d 0433 8e3d ac45 fd3c
000002b0: 8046 c73c 501c 4ebc 1465 803d 84b0 983c
000002c0: 384d d13c 60e1 3b3d 8021 d63a 08d6 49bc
000002d0: 50c7 ed3c 4452 833d a094 77bc e075 5b3b
000002e0: 4d10 90bd 607c 6e3d 40a7 80bb 48cc fe3c
000002f0: 6e97 023d 8baa 39bd c413 093d 0456 2cbd
00000300: ba09 983d dc36 c83c d019 623d 8f60 61bd
00000310: 202e 463d 8890 e2bc 60f9 263d 8cb3 f0bc
00000320: cc2a 78bd fcaa c6bc 908f 7f3d f692 9b3d
00000330: 10cf 7cbc b86f 8f3d a844 2a3c 587d 88bc
00000340: ccc2 ea3c cacf acbc 695b a1bd 86e6 96bd
00000350: e0f8 e0bc 283b c9bc a224 8abd 468e a33d
00000360: 0ae2 8abd 7a97 90bd cc79 5f3d 9a0d ddbc
00000370: 1090 513d 8893 f93c 6017 413b e8c7 6fbd
00000380: 1ddb 9ebd 55b8 9fbd 542c 763d d024 bbbc
00000390: 5382 6bbd dd9c 94bd 40ce a8ba d23c b6bc
000003a0: d40e 9d3d 6cad f33c 1829 373d a464 f53c
000003b0: 4861 503d 544a e23c 34f9 4fbd 9c19 7c3d
000003c0: 5e6d 82bd b0f9 643d 80bd 0f3c ae4b 253d
000003d0: d65d abbc 847b 943c f8d5 90bc f09d 69bc
000003e0: 06f5 9f3d f05c 313c 0041 8d3d 50f5 653c
000003f0: a087 523c 38c1 60bc 98f5 623d 2087 833d
-0.05179502 0.05918908 -0.07344569 -0.039204065 0.046388805 -0.047675088 0.08046469 -0.052431587
-0.06911713 -0.05926851 -0.052093204 -0.031196728 0.047837645 0.051402748 -0.023312744 0.0017807037
-0.016244486 -0.042514313 0.045876876 0.044890523 -0.004198849 -0.03063628 0.034909964 0.07844281
-0.05118203 -0.015455417 0.06699216 -0.040877216 -0.05693376 -0.0791935 -0.008191802 0.066378966
0.053103983 0.027043179 0.018752284 0.04696472 0.021148339 0.02871266 -0.019966267 -0.05254428
-0.011242017 0.06477471 0.023824371 0.009147622 -0.03575154 0.069952995 -0.014279693 0.07070717
0.0068662316 -0.044037055 -0.07386195 -0.022630189 0.06867601 -0.07444089 -0.028052948 0.004537694
0.040774792 0.024386056 0.016818494 0.057506308 0.059920177 -0.06467447 0.010851793 -0.06932597
0.045812815 0.0017436445 -0.07965741 0.033537813 0.031890824 -0.078543104 0.013112679 0.042922974
-0.04462315 -0.042947706 0.0639966 0.0126047805 -0.07578677 -0.056515865 -0.0698208 -0.054541007
0.053513676 -0.03515572 0.036516607 -0.068763696 -0.08100036 0.035707116 0.041817874 -0.0588916
-0.07004449 0.027682543 0.027287737 -0.075686015 -0.060975514 -0.045227576 -0.057620138 0.039832704
-0.01319655 -0.061672077 0.07647744 0.01428207 0.041029833 -0.06373299 0.06406471 0.0781441
0.032527305 -0.051973056 -0.074415684 -0.027832836 0.0074622855 0.043489695 0.0062777624 -0.08085278
-0.032148167 0.039624743 0.061531052 -0.052065767 0.07860604 -0.04320773 -0.031476896 -0.0573306
-0.014138132 0.010504924 -0.046594243 0.07622658 0.022198863 -0.07747646 0.04513225 -0.04117864
0.0624149 -0.025541205 0.04639885 -0.009524129 -0.07399362 0.07276887 0.011257291 0.07487516
0.06752415 0.061472535 -0.0550258 0.034207724 0.031119972 -0.06813891 0.012015723 0.072803825
-0.03796325 0.0051266104 0.04716958 0.010991648 0.04454954 -0.0509343 0.028941743 -0.037374604
0.03525898 0.019437924 -0.03249065 -0.068701565 0.0051877946 -0.05197978 -0.042326365 -0.0169878
0.05419381 0.05649984 -0.061942723 -0.05267939 -0.07642546 -0.052046962 0.03153158 -0.009497859
-0.04810301 0.03832297 0.06943324 0.030917011 0.02432561 -0.012579992 0.06269279 0.018638857
0.025549516 0.04586923 0.0016336888 -0.012319095 0.029025704 0.06412175 -0.015111119 0.0033487007
-0.07034359 0.058224082 -0.0039261878 0.031103268 0.031882696 -0.045328658 0.033466116 -0.04207422
0.0742373 0.024440221 0.055200398 -0.055023726 0.048383832 -0.027656808 0.040765166 -0.02938249
-0.06058769 -0.024251454 0.06239277 0.0759639 -0.015430227 0.070037305 0.0103923455 -0.016661331
0.02865734 -0.021095175 -0.07878763 -0.073681876 -0.027462423 -0.02456434 -0.067452684 0.07986121
-0.06781395 -0.07060142 0.054559514 -0.026984025 0.05116278 0.030465856 0.0029463395 -0.058540255
-0.07756636 -0.077988304 0.06010087 -0.022844702 -0.057497334 -0.07256482 -0.001287885 -0.022245798
0.07668844 0.02974578 0.044716924 0.029955216 0.050874025 0.027623333 -0.050774768 0.06154786
-0.063685164 0.055902183 0.008773208 0.040355377 -0.020918768 0.018125303 -0.017680153 -0.014258847
0.078104064 0.010825381 0.068971634 0.014035538 0.012849718 -0.013717942 0.055409998 0.064222574

conv2.bias f4 [16]
00000000: 60cd 633c a856 093c 0046 4b3b 60e3 603c
00000010: 2068 f43b b64c 8d3d cc0d e33c e8fd 52bc
00000020: b8ac 593c 4872 7b3d 7b05 2cbd d05f 3a3d
00000030: 94a4 503d d0e8 12bd 8416 56bd 2a47 a43d
0.013903946 0.008382477 0.0031017065 0.013726085 0.0074587017 0.06899397 0.02771654 -0.012877919
0.013285808 0.061388284 -0.041997414 0.04550153 0.050938204 -0.03586656 -0.052267566 0.08021386

fc1.weight f4 [120, 400]
00000000: e329 eabc b005 88bc 8352 1e3d 434e e2bc
00000010: 171a a0bc 8dfc 193d ab9e 24bd 6a15 cabc
00000020: f5a2 3e3d 2b04 423d 3f8d 0d3d f002 eabb
00000030: 9678 a93c 7985 3a3d a21a ef3c 35ff 073d
00000040: 3a9e d43c c49f 03bd 60df 633b c4b5 5e3c
00000050: 1069 cabb 00ac efb9 b14f 443d 9884 06bc
00000060: 30d0 38bd 6ced 0abc 40b3 37bc 8078 7ebb
00000070: 4dc8 b5bc 5e22 cd3c a96a 3f3d c053 c8bb
00000080: 286f 0b3c 33a3 423d bd9e eebc a01b 41bb
00000090: 2130 203d 9de9 253d 7adb cd3c ea94 c9bc
000000a0: 6738 a5bc 5b80 22bd 7872 73bc 72b2 f03c
000000b0: 336e 38bd 0dfc 033d 08e3 05bc d930 3a3d
000000c0: cc59 02bc 4d8a 14bd fddc babc 004d 4a3c
000000d0: 6a37 fd3c 36dd 80bc 8092 b439 be64 bd3c
000000e0: c00f 14bd 2b60 36bd 9d8b 343d 4731 40bd
000000f0: fd20 d7bc d8da 823b 5071 4b3b 5fce 153d
00000100: bdf6 423d 8271 34bd 18ee 9e3b 233a 3b3d
00000110: 8686 d23c 51ae 413d a4bb 6b3c 0074 49ba
00000120: e83d 55bc 3404 33bc 5010 ecbc 70c0 0dbd
00000130: f57b 26bd f71f 363d c64c ac3c 801e c4bb
00000140: ea60 bdbc 3035 3fbb d0ac c1bb 4c41 4cbc
00000150: bd4c f0bc 1631 17bd 0ae4 8bbc 6c7e 47bc
00000160: 987e 3dbc 42e6 d13c 158c 2bbd b465 61bc
00000170: c3eb 19bd b099 b6bb e309 d6bc 72a9 db3c
00000180: 8e24 8f3c 982a 82bb 0d39 4c3d 1284 b83c
00000190: 505f 22bd c8d9 3abc ed89 f8bc b218 42bd
000001a0: 20d6 043c bebd 8b3c b6c8 05bd dd5b eabc
000001b0: 0871 233c f042 f33b 8dd7 313d c58e 1ebd
000001c0: ac25 2fbc a106 003d b23c 933c 5896 d53b
000001d0: c24c d23c 1210 d33c 7d7b 333d dd83 433d
000001e0: 412f 313d c54a 17bd 9148 2f3d 93da 423d
000001f0: a938 1b3d bd9a 033d 22cb fe3c 404d 463c
00000200: 5ed1 00bd 7ae7 f7bc d85f cbbb abcf 13bd
00000210: b6c9 91bc b002 c1bc 685b c3bb 0dc1 eabc
00000220: 6838 f73b df5d 073d a077 34bc e068 2a3c
00000230: 6729 123d 1086 c23b 01d4 493d de42 a23c
00000240: 2013 253b 20cf 30bc 004f 0c3b b42f 82bc
00000250: bce7 7f3c 7fac 463d a459 6e3c e934 073d
00000260: c3c9 e2bc f79a b3bc 63f3 0f3d aa19 90bc
00000270: fa92 82bc b71d 1e3d 919e 0f3d 4267 e03c
00000280: 94f3 03bc e3a0 143d d3ab f4bc e87f 20bc
00000290: 77a2 303d 979f e1bc 9ad7 a7bc 47f4 2c3d
000002a0: 8037 423c 0024 abbc 51d4 4a3d 7655 93bc
000002b0: a0ed 01bd 209d 20bd 99d3 2a3d 86cb 913c
000002c0: baea c33c cad2 83bc e37d 2bbd a371 23bd
000002d0: 98b2 e13b 05f5 2c3d 8264 b23c 27bc 9abc
000002e0: bac7 92bc 074e 233d 98ef 01bc 883f 36bc
000002f0: 3888 1abd ea92 a2bc 7ec1 e43c 70c3 43bd
00000300: 481a 213c 1886 64bc 40ca aebb 80b2 0f3b
00000310: 00ee 9cbb 5d3b 213d 3d0e a8bc 462d d03c
00000320: edc8 323d 0cd8 5cbc 7821 1f3c 5e65 cc3c
00000330: c74b 433d 9b10 19bd 7bee 3abd 203d 2bbb
00000340: 425c a23c 902a a4bb b8f2 6abc 3330 b2bc
00000350: 60d1 59bc 1097 dabb a6e0 e03c 7d7c 09bd
00000360: fc93 99bc 5204 ea3c cdd2 203d 8933 4b3d
00000370: 434b 12bd ddcb 213d d9b5 1b3d e103 3d3d
00000380: d4d2 84bc 34b6 473c 5719 49bd 8042 063a
00000390: 5833 41bd 68bc 443c 9a68 933c 68ce 17bc
000003a0: 3239 ad3c 75c2 143d 879c 9cbc 0a25 40bd
000003b0: cd51 16bd 27af fdbc 102a fcbc 9dc8 0d3d
000003c0: 940f 743c aa38 aa3c 3a9b cdbc 48e2 03bd
000003d0: a725 393d 2b04 2abd 2e28 d33c 393c 213d
000003e0: 3aba febc a0db d53a 606d 243c 6083 203b
000003f0: 490a 1a3d 21a2 203d 9222 b83c 07df a4bc
-0.028584426 -0.016604275 0.038652908 -0.027625209 -0.01954369 0.037594367 -0.04019038 -0.024668414
0.046542127 0.047367256 0.03455853 -0.0071414635 0.020687383 0.045537446 0.029187504 0.03320237
0.025954355 -0.032134786 0.0034770593 0.013593141 -0.006177075 -0.00045713782 0.047927562 -0.008210324
-0.045120418 -0.008479457 -0.01121217 -0.0038829148 -0.022190237 0.025040802 0.04673258 -0.0061134994
0.008510388 0.04751892 -0.029128427 -0.0029465929 0.0391084 0.040505994 0.025129069 -0.02460714
-0.020168496 -0.03967319 -0.014858834 0.029381964 -0.04502697 0.032222796 -0.008171804 0.04545674
-0.00795598 -0.036264706 -0.022810454 0.01234746 0.030910213 -0.015730482 0.00034441426 0.023119327
-0.036147833 -0.044525307 0.044078458 -0.046921995 -0.026260847 0.0039933734 0.0031042881 0.036573764
0.04759859 -0.044053562 0.0048501603 0.04570974 0.025698911 0.04728538 0.014387999 -0.0007684827
-0.013015248 -0.010926295 -0.028816372 -0.03460735 -0.04064556 0.044464078 0.021032702 -0.005985081
-0.023117501 -0.002917599 -0.0059104934 -0.01246674 -0.029333467 -0.036912046 -0.017076511 -0.012176137
-0.011565827 0.02562249 -0.04188164 -0.013757158 -0.037578356 -0.00557252 -0.026127761 0.026814196
0.017473485 -0.0039723627 0.049859095 0.022523914 -0.03964168 -0.011404462 -0.030339206 -0.047386833
0.008107692 0.01705825 -0.032662116 -0.028608257 0.009975679 0.007423751 0.043418456 -0.038710374
-0.010690134 0.03125632 0.017973278 0.0065181665 0.025671367 0.025764499 0.04381894 0.047733176
0.043257955 -0.03693654 0.042793814 0.04757173 0.037895832 0.03212999 0.03110272 0.012103379
-0.031449668 -0.030261744 -0.006206494 -0.03608672 -0.017796379 -0.023560852 -0.005961824 -0.028656507
0.007544566 0.033048507 -0.011014849 0.010400981 0.035684016 0.0059363917 0.04927445 0.019807275
0.0025188401 -0.01079157 0.0021409392 -0.015891887 0.015619215 0.04850435 0.014547739 0.033009443
-0.027684098 -0.021924479 0.03514422 -0.017590363 -0.015939225 0.038602557 0.03506333 0.027392987
-0.008053679 0.036286246 -0.029867088 -0.00979612 0.04312369 -0.027541919 -0.020488549 0.04222515
0.011854053 -0.02089119 0.049518887 -0.017985087 -0.031720757 -0.039212346 0.0417057 0.017797243
0.023915637 -0.016091723 -0.0418681 -0.039903294 0.006887745 0.042225856 0.021776441 -0.018888546
-0.017917503 0.039869335 -0.007930659 -0.0111235455 -0.037727565 -0.019845445 0.027924296 -0.047793806
0.009832926 -0.013947986 -0.0053341687 0.0021926463 -0.004789114 0.039363254 -0.020514602 0.025412213
0.04364865 -0.013479244 0.009712569 0.02495068 0.04767969 -0.03736935 -0.04563759 -0.0026128963
0.019819383 -0.0050099567 -0.014340095 -0.021751499 -0.013294548 -0.00667084 0.02745087 -0.033565987
-0.018747322 0.028566513 0.039263535 0.049609695 -0.035716306 0.03950106 0.03801522 0.046146277
-0.016213812 0.012189437 -0.04909643 0.00051216036 -0.047168106 0.01200781 0.017994214 -0.00926552
0.021145437 0.03631826 -0.019117607 -0.046910323 -0.036699105 -0.030967308 -0.030781776 0.034615148
0.014896292 0.020778973 -0.025098432 -0.03219822 0.045201924 -0.04150788 0.025775995 0.039364073
-0.03109466 0.0016316064 0.010035843 0.0024492368 0.037607465 0.03921712 0.022477422 -0.020125879

fc1.bias f4 [120]
00000000: f5b9 103d 6f75 293d b012 b03b 80fe 0b3a
00000010: e714 36bd 38a1 76bc 1438 02bc 64d9 563c
00000020: da1d 94bc 6213 e23c 4dec c5bc 7009 41bd
00000030: 6bc8 19bd f09f 903b f8c1 163c 24ae 783c
00000040: 0c31 7d3c 9047 94bb 338c edbc a1d1 493d
00000050: 8d2c d8bc f696 833c c09b dc3b 6f60 1a3d
00000060: 9d99 0bbd 005e 27b9 9720 e6bc b869 6abc
00000070: b0cc 99bc 5b2f 3b3d 8eb5 9a3c d217 2cbd
00000080: 7586 313d 2df8 d5bc ea91 e63c 4594 2a3d
00000090: c043 01bc 70ee e1bb fcf5 6a3c 8f63 3a3d
000000a0: d06f 4a3b 2c58 2b3c 7e6b de3c 603f eaba
000000b0: 75c5 413d 00a8 8a3b 7a3c 24bd 174b 083d
000000c0: 5767 393d 8288 43bd 3015 23bd e82d 31bd
000000d0: 3352 193d 3090 2ebd 3b80 243d 6e8e e43c
000000e0: 9239 d13c b0c7 833b 22e5 8d3c a865 c1bb
000000f0: bdf7 37bd c0d6 8cbc 3059 953b 548d 01bd
00000100: 9862 4abc 205f 1f3b 70a1 8ebb 4ec7 00bd
00000110: 400c 8dbb 1165 073d eaed bb3c 953e 35bd
00000120: 8ad0 8e3c 3e56 17bd 73ff a7bc 7ca2 6d3c
00000130: ea9e 9ebc 0ab9 afbc ff12 053d e18b 0f3d
00000140: 437c 403d f99f 2a3d 92d8 983c db67 133d
00000150: 8285 06bd f6c1 92bc 6300 2bbd e196 0c3d
00000160: 2230 c73c 431e 113d d731 4cbd 6d71 adbc
00000170: 94fb 00bd b085 673b 89f1 123d 7cb7 90bc
00000180: 867f e43c 456e 063d 243c 753c ae61 b03c
00000190: 3234 28bd 9221 923c 96bf d93c 385c 393c
000001a0: 6e37 e33c 4e05 8f3c 0df7 003d 6616 af3c
000001b0: 1e63 d93c c516 45bd 0e92 df3c e076 133b
000001c0: 02bf 06bd 93a9 0b3d 65b4 2d3d e033 223b
000001d0: 98fd d9bb 70a4 f5bc 37ba cabc 66d0 d83c
0.035333592 0.04137176 0.0053733215 0.00053403527 -0.044453528 -0.015053086 -0.00794794 0.013113353
-0.01808064 0.027597133 -0.024160529 -0.04712814 -0.03754465 0.0044135973 0.009201519 0.015178237
0.015453588 -0.0045251325 -0.028997516 0.049272183 -0.026388431 0.016063195 0.006732434 0.037689622
-0.034082044 -0.00015961379 -0.028091712 -0.014307432 -0.01877436 0.04569946 0.0188854 -0.042014904
0.04334112 -0.026119316 0.02814575 0.041645307 -0.007889688 -0.006894879 0.014340874 0.045505103
0.00308894 0.0104580335 0.027150866 -0.001787167 0.04730745 0.004231453 -0.040096737 0.033274736
0.04526457 -0.047737606 -0.039815128 -0.04325667 0.037431907 -0.042617977 0.040161353 0.027899947
0.025540147 0.0040216073 0.017321173 -0.005902011 -0.044913996 -0.017192245 0.004557751 -0.03162892
-0.012352608 0.0024318174 -0.004352741 -0.03144007 -0.004304439 0.03305537 0.022940595 -0.044249136
0.017433424 -0.03694748 -0.02050755 0.014504071 -0.019362886 -0.021450538 0.03248882 0.03504551
0.046993505 0.041656468 0.018657956 0.035987716 -0.032842167 -0.017914753 -0.041748416 0.034323577
0.024314944 0.03542925 -0.04985222 -0.02117225 -0.031489924 0.0035327487 0.035874877 -0.017665617
0.02789284 0.032820005 0.014967952 0.021530952 -0.041065402 0.017838273 0.026580613 0.011313491
0.027736392 0.017458584 0.031485606 0.021372985 0.02653652 -0.048117418 0.027291324 0.0022501275
-0.032897003 0.034097265 0.042408366 0.0024750158 -0.006652545 -0.029985636 -0.024746997 0.02646656

fc2.weight f4 [84, 120]
00000000: d0a7 dd3b b334 78bd e0b2 e43b b813 3f3d
00000010: b495 3e3d a3a2 6fbd fca5 783d 9809 4bbd
00000020: 6874 61bc ca70 7fbd f817 4ebd e42d 243d
00000030: 10a5 ad3b cc13 b5bd b8c5 92bc abff 41bd
00000040: 8033 a33c 00d7 0e3d 48eb 9abc 1d19 57bd
00000050: 9950 8cbd 58dd 8f3c 687d a33d a475 8fbc
00000060: b6c8 a73d b637 8f3d 1793 78bd 96ee 64bd
00000070: 1420 123d b0f6 adbb 19ff 8fbd b65e 3ebd
00000080: 2830 2ebc 08a4 65bd 46e3 843d 5887 053d
00000090: 7cc8 953d 88b7 8ebd ec6a 903d f4df be3c
000000a0: 7028 50bc 00a6 7ab9 bebc 27bd 2052 353c
000000b0: 50d2 9abb 50ec 98bc 5256 843d 3176 8cbd
000000c0: c415 7fbd b83c 603d 10b9 053d c05a 86bd
000000d0: c8f9 483c e09c 573d b478 223d c03d 84bc
000000e0: a4d9 f7bc b3fd 0abd 84f1 9a3c 8a0a 76bd
000000f0: eaa5 29bd ce98 b73d f494 a1bd 4098 043d
00000100: 2a4b fdbc 8064 163b 7080 54bc 9f4c 91bd
00000110: 7027 783d 82c6 7cbd acc0 d5bc 3079 ea3c
00000120: 8897 c2bc fe11 863d 74b0 e23c cdcc 4cbd
00000130: 577c 5dbd c88f b93d 0cf1 1d3d e282 96bd
00000140: 6c78 ffbc 5a6f ad3d 8048 2b3d fd61 1fbd
00000150: 00e3 2f3c 8083 5d3d 564c 833d 9097 f7bb
00000160: a02b 61bb dc8e aebc 2c37 353d 80dd 183b
00000170: a4ad 843d 1c70 4a3d 3e9c 97bd c87f 90bc
00000180: 8510 60bd ae1f 863d af20 46bd 24ab 09bd
00000190: 5589 0ebd f0bf b4bd e0f5 a03c a046 50bb
000001a0: 3cc2 f03c 71d6 68bd 2c4d 3d3d ac7a 81bd
000001b0: ce66 9e3d 30b2 a63c b461 6f3d 2030 f9bb
000001c0: e617 f8bc 8081 10bb aece 86bd d8b2 4e3d
000001d0: f871 89bc 14b6 a2bc f157 a7bd d0ff 8abd
000001e0: 289e 663c 08f3 023c 862c a13d 1d86 1cbd
000001f0: 4ccf a93d b445 12bd 0056 e93c 8261 b43d
00000200: f8cf bf3c 98c5 b1bd 627e 81bd eaed a43d
00000210: ccab 893c 60cf 82bc 38e3 1dbc 8c43 b33c
00000220: 0420 2a3d 6e9f 68bd 8041 aabc 50d7 fb3b
00000230: 0d86 2bbd 08a5 7d3d ac51 ca3c b4d1 39bd
00000240: c827 533d 9667 b8bd 78ef a13d 981e 873d
00000250: feff b03d 40af 893c 2c84 a4bc 782d 703d
00000260: 682b f6bc 4863 873d e761 28bd 7990 b5bd
00000270: 8c89 d2bc e829 483c a941 11bd 84b8 9b3d
00000280: 385b e53c 689b b83d 0634 86bd 3865 433c
00000290: 4d22 73bd d8a4 a7bc 64f1 693d 2878 09bd
000002a0: 0384 a5bd 5eec 023d 7802 453d 19cf a6bd
000002b0: f424 473d f6e8 4bbd 7072 fdbc eaa9 32bd
000002c0: 6e42 36bd 1029 8dbb f001 df3b c065 8cbb
000002d0: ba36 11bd 2af5 8bbd 4471 5ebd 2a79 0bbd
000002e0: 46b2 1bbd c81a 0f3c d46a 57bd 24d2 89bd
000002f0: 6e45 843d b269 56bd 7908 98bd 0001 9fbb
00000300: 2452 9d3d d8b9 343d a853 693d e2b0 91bd
00000310: f0ee 273c c1ee 80bd d065 a13d 2416 a5bd
00000320: 3c3e 73bd e0b2 37bb 80c9 b43d 4ad7 b23d
00000330: d8aa 9a3c cceb be3c c498 3c3d 0a58 aa3d
00000340: 74e8 8f3c 38c4 91bd ac9c 163d e699 80bd
00000350: 81d1 b2bd 94c1 40bd 1d95 babd cc56 533d
00000360: 64a5 983d b859 96bd e8d6 753d 3483 b8bd
00000370: 8989 86bd e6d6 8c3d dce1 acbd 1609 8b3d
00000380: 442d cdbc bca1 b3bc 10d1 9bbb 59be 58bd
00000390: abab 20bd 0089 9fb9 a06d 7b3b bb1f b3bd
000003a0: e4ac 903d 4357 5fbd 985b 8ebc 6464 9c3c
000003b0: a961 40bd dfcc a2bd a8b6 283d f663 91bd
000003c0: 9831 d2bc 0c5b 7d3d 50b8 7cbd 8a86 a63d
000003d0: 6023 853c f00a 933b 9ace 923d 1677 a53d
000003e0: 1809 3fbc 9c4f d9bc 4cfa 1f3d f1e5 5ebd
000003f0: 10d3 56bd 62c0 853d 1ba5 babd 8631 a8bd
0.0067643896 -0.060597133 0.0069793314 0.046649665 0.046529487 -0.05850471 0.06070517 -0.049569696
-0.013760664 -0.062363423 -0.050315827 0.040082827 0.005299218 -0.088416666 -0.017916545 -0.047362965
0.019922018 0.03487301 -0.018911019 -0.052514184 -0.0685131 0.0175616 0.07982904 -0.01751215
0.081925794 0.06993048 -0.06068715 -0.055891596 0.035675123 -0.0053089485 -0.07031078 -0.046477042
-0.0106315985 -0.056064636 0.064886615 0.032599777 0.0731363 -0.069685996 0.07051644 0.023300149
-0.012704954 -0.00023903698 -0.040951483 0.011066943 -0.0047247782 -0.01866737 0.06461777 -0.06858481
-0.062276617 0.054745406 0.032647192 -0.06560278 0.012266584 0.052639842 0.039665893 -0.016142726
-0.030255146 -0.033933353 0.018913992 -0.060068645 -0.041417994 0.08964692 -0.07889739 0.03237176
-0.03091963 0.0022948086 -0.012970075 -0.070946924 0.060584486 -0.06171275 -0.02609285 0.02862224
-0.023753896 0.065464005 0.02767203 -0.05 -0.054073658 0.09060627 0.03855996 -0.07349183
-0.031185351 0.08468504 0.04181719 -0.03891181 0.010735273 0.054080486 0.06411044 -0.0075559095
-0.0034358278 -0.021308355 0.04424207 0.0023325384 0.06478432 0.049423322 -0.07402848 -0.017639056
-0.054703254 0.06549011 -0.048371013 -0.033610478 -0.03479894 -0.08825672 0.019648492 -0.0031780377
0.029389493 -0.056845132 0.046216175 -0.06322226 0.07734452 0.020348638 0.058442786 -0.007604614
-0.030284833 -0.0022049844 -0.0658239 0.050463527 -0.016777977 -0.019862212 -0.0817107 -0.067870736
0.014075793 0.0079925135 0.0786982 -0.038213838 0.08291492 -0.035711005 0.02848339 0.08807661
0.023414597 -0.08680266 -0.06322934 0.08053191 0.016805552 -0.015968025 -0.009636693 0.021882795
0.04153444 -0.05679267 -0.020783186 0.0076855794 -0.041875888 0.061924964 0.024697147 -0.045366004
0.05155161 -0.090041324 0.07907003 0.06597632 0.08642577 0.016807199 -0.020082556 0.058637112
-0.030049995 0.06610733 -0.041108992 -0.088654466 -0.025700353 0.0122170225 -0.03546301 0.07603553
0.027997598 0.090140164 -0.065528914 0.011925988 -0.059358884 -0.020464346 0.057114974 -0.033561856
-0.0808182 0.0319637 0.048098058 -0.081449695 0.048619226 -0.049782716 -0.030938357 -0.043619074
-0.044496946 -0.0043078735 0.006805651 -0.0042845905 -0.035452582 -0.06833871 -0.054307237 -0.034051098
-0.03801181 0.0087344125 -0.052592114 -0.06729534 0.06458555 -0.052346893 -0.07423491 -0.004852414
0.07681683 0.044122547 0.056964546 -0.07113816 0.010249838 -0.06295539 0.07880747 -0.080608636
-0.059385523 -0.0028030202 0.088274956 0.087324694 0.018880293 0.023305796 0.046044126 0.08317573
0.017566897 -0.07117504 0.036770508 -0.06279354 -0.08731366 -0.04705961 -0.09110472 0.051596448
0.07453421 -0.07341331 0.060019404 -0.090094 -0.065692015 0.06876926 -0.08441517 0.067888424
-0.025045998 -0.021927707 -0.004755147 -0.052915905 -0.039226215 -0.00030428916 0.0038364902 -0.087462865
0.07064226 -0.05452658 -0.01737766 0.019090839 -0.046968136 -0.07949232 0.04118982 -0.07099144
-0.025658414 0.061854407 -0.06169921 0.0813113 0.01625222 0.004487388 0.07168312 0.080793545
-0.011659883 -0.026527219 0.03905706 -0.054418508 -0.05244738 0.06530835 -0.091135226 -0.08212571

fc2.bias f4 [84]
00000000: f82c b93c ee11 aabd 264b 6ebd 2052 3a3d
00000010: 1cde b93d a00f 703d f4e7 a33d 9a7d b8bd
00000020: 4887 b33c 97dc b2bd 148b 9f3d 1464 8dbd
00000030: 40cb 063c b00d aa3d 3c4f 263d feab a53d
00000040: 74ec aebd 1011 7f3d faee 8abd 467e 8bbd
00000050: 8515 a3bd 00f0 ddb7 f3cb 11bd a83b aa3d
00000060: 9c20 783d c0e8 3fbd 4b9b 26bd a2cb a33d
00000070: 0c6d aa3c 5426 c23c c07e 41bc 7e13 033d
00000080: d4c6 9a3d 6dcf 48bd 4e31 a03d a0e8 bfbb
00000090: abe7 12bd ccfb 5e3d 6865 663d de9a 6fbd
000000a0: 68e4 31bc 1285 b1bd 64f8 5abd 1c94 613d
000000b0: 0048 6f3b 3c47 80bc 116c 47bd f0a8 8d3c
000000c0: 6037 34bb a825 0f3d 08ba 343c bfbb 91bd
000000d0: 29f3 60bd baaf ad3d 908f d3bc 00ed b0ba
000000e0: ecaf a33c ea98 b23d 288f 1f3d 3073 0f3d
000000f0: 9dca 0ebd 50c3 a63d 9eed b73d 9655 b03d
00000100: 8669 44bd 50a7 ab3d b67c 93bd dddb a0bd
00000110: 506a a13c 2029 f83b f831 92bd 4836 363d
00000120: 9ae4 8ebd 5831 0c3d 0091 7bbb f420 993c
00000130: d8c2 3d3d 14ee 113d 5fa8 7fbd d0cd 903d
00000140: b80f ad3c b05c 33bd 21ae 73bd 9477 903d
0.02260445 -0.08304201 -0.058177136 0.045488477 0.09075567 0.05860865 0.08003226 -0.090083316
0.021915093 -0.087334804 0.07790199 -0.06903854 0.0082271695 0.08303392 0.040602908 0.080894455
-0.085411936 0.06227213 -0.067838624 -0.06811194 -0.07963089 -2.6457012e-05 -0.03559489 0.0831216
0.060577974 -0.046852827 -0.040675443 0.07997824 0.02080395 0.023699917 -0.011810005 0.03200101
0.07557455 -0.04902594 0.07821904 -0.0058565885 -0.035865467 0.05443935 0.056249052 -0.058497302
-0.010857679 -0.08667959 -0.05345954 0.05507289 0.0036511421 -0.015658967 -0.048687045 0.01729247
-0.0027498826 0.03494802 0.011030681 -0.07115888 -0.054919396 0.08480783 -0.025825292 -0.0013498366
0.019981347 0.08720572 0.038954884 0.03502196 -0.034861196 0.08142722 0.08980869 0.08610074
-0.047952197 0.08381522 -0.07201521 -0.078544356 0.019704014 0.007573262 -0.07138437 0.04448536
-0.06977196 0.034226745 -0.0038385987 0.018692471 0.046328396 0.03562744 -0.06241643 0.070705056
0.02112566 -0.043789566 -0.059492234 0.07054058

fc3.weight f4 [10, 84]
00000000: 59a8 843d de64 93bd 3a1b 103d cc2b e13c
00000010: 5835 0a3c 6410 babd b8c4 1fbd 8429 98bd
00000020: d544 b03d 2bef b23d cef2 2e3d 7984 d43d
00000030: 3381 d73d 44f7 88bd f415 fdbc 20a2 a5bd
00000040: 5f6c bd3d 6a54 363d 3a4e 293d 6544 843d
00000050: 20f0 bbbb ad05 b23d 6bb0 bfbd 6cfa 99bc
00000060: c8e9 213c c48f 8bbd e239 6c3d b9b2 77bd
00000070: 5123 6ebd e468 dc3c ae18 d5bd 20f6 293c
00000080: 5deb 5dbd f8ec 81bd cabf 7b3d b8a4 023c
00000090: a0ac 1fbb 5384 dbbd ce5a 3cbd d2dd 87bd
000000a0: 366f 003d daac d7bd bbe1 a53d 68a6 253c
000000b0: 4db0 823d 5049 1b3c d03c 5f3c f07b cabc
000000c0: 4d38 813d 7f34 a9bd ff62 aebd a5d8 b0bd
000000d0: 5020 87bd 20bf 34bb eb72 c53d c14e c2bd
000000e0: d676 6b3d 94f5 983c f1a9 de3d 487f 533c
000000f0: ba0b 5d3d 4ee8 ddbd 005e 703a 4c83 a1bc
00000100: d7fa c2bd 50a8 85bd d414 94bd 9af9 233d
00000110: cc14 fe3c ff6d 8bbd d1fc c03d 950c d43d
00000120: a488 bd3c d112 973d c68e 783d f42c 3abd
00000130: e0c4 bc3b a45c d83c 98fa 7dbd 8beb a83d
00000140: 1378 923d 1d5a 6fbd b54f cf3d 3e39 acbd
00000150: 295b cbbd c943 a03d 733e d03d 382f 2dbd
00000160: 8020 5dbc b9c9 d23d c7f8 b03d 3c32 d13c
00000170: d0fb c5bb 48b2 1cbc 4386 823d 24f4 b43c
00000180: 3994 a63d 125e 0fbd 9740 b93d 101d 42bc
00000190: 2e47 7e3d 6280 6f3d ac5c babd 8629 a5bd
000001a0: 3b6b ae3d 6540 8c3d aeb3 523d f00b e1bb
000001b0: bc62 32bd 226a a0bd c24f 623d 58b8 673c
000001c0: 2075 3bbc 6076 e23b 19dc ab3d 0212 9bbd
000001d0: 0a6f 503d c208 14bd 97c5 a83d 3862 4c3c
000001e0: 9a6f 03bd f6a5 1e3d 803c ef3a b58f d9bd
000001f0: a811 94bc c704 893d 7c2e ae3c 76d2 163d
00000200: c0b2 48bd f21d 04bd b6ac 77bd e40a ef3c
00000210: 87d8 833d 999a cb3d cce6 e93c e991 d43d
00000220: 9c99 9cbd 641e a6bc cdcf bb3d 5f32 8c3d
00000230: 3793 c33d 44c1 b7bc 803d a6bd 9c99 88bd
00000240: 5270 81bd 9f12 8f3d 32c7 6d3d 60e5 e9bc
00000250: 0969 5dbd b4b4 f53c 7728 bb3d 2981 ad3d
00000260: 455c babd 73d1 973d 5212 95bd f301 b1bd
00000270: e7a6 ba3d 1203 343d ceda 423d 664f 04bd
00000280: 1dcf 9b3d cbf8 cbbd 4e1e 7dbd 662d c6bd
00000290: 1e0c 443d f68d c5bd c591 85bd e31e ab3d
000002a0: 6725 cdbd 94af a33c 7afa 6abd 9dad 833d
000002b0: 60dc 37bd 15e6 a8bd ad9b afbd 7ae8 1e3d
000002c0: ea03 8abd 369c 193d c497 8bbc 76a0 a2bd
000002d0: c0d0 d2bd 08d9 5ebd 3657 423d 615f a33d
000002e0: 6184 a13d 4058 b1bb ea2c 7f3d 7b3e 963d
000002f0: e0bf 80bc 1026 c4bc f337 9b3d b0f5 1cbd
00000300: b4c4 d5bc 26bf 24bd 281f a2bc 0b78 cc3d
00000310: bccb 94bd 0c08 a4bc f1b4 8a3d 525c 59bd
00000320: 4c17 28bd 3e8c 2d3d 5241 20bd 2694 b9bd
00000330: 4909 75bd ae14 653d 752d cfbd 7564 aa3d
00000340: 54e7 edbc 4b10 b63d 230f b1bd e18d 903d
00000350: 3629 5b3d 75ad 813d 3573 aa3d a2cc 363d
00000360: 9483 fd3c de97 273d 80cb 79bc 3b06 68bd
00000370: dc26 77bd 9030 883b dac7 7b3d 38df 87bd
00000380: 4f00 b4bd 5caf 8bbd 6235 643d 305c c6bb
00000390: 408b 83bb 7acf babd f62f c2bd c862 733c
000003a0: 36a7 b7bd 5898 073c c077 77bc 48ee 613c
000003b0: 8d58 8e3d ec9b ab3c 92e6 a4bd f5fa dcbd
000003c0: 1e31 9fbd 8616 d8bd 679b b1bd 7024 febc
000003d0: 0ee1 763d c914 ab3d 329b b6bd 001a c7bd
000003e0: a071 4dbc 38f4 4a3c 308f 16bd 5d0f b73d
000003f0: 0c25 bebc 95f0 cd3d c255 9cbd 0cb7 bcbd
0.06477422 -0.07196973 0.035182215 0.027486704 0.00843557 -0.090851575 -0.039005965 -0.074297935
0.08606879 0.08737024 0.042712025 0.1037683 0.1052269 -0.06687787 -0.030894257 -0.080875635
0.09249186 0.044514097 0.04133437 0.06458358 -0.0057354122 0.08692489 -0.09359821 -0.018796168
0.009882398 -0.068145305 0.05767239 -0.060473178 -0.05813915 0.026905484 -0.10405098 0.010373622
-0.054179538 -0.06344026 0.0614622 0.007973842 -0.0024364367 -0.10718598 -0.045985036 -0.06634106
0.03135606 -0.10531016 0.08099695 0.010110475 0.06381283 0.009477928 0.013625339 -0.024717301
0.06309567 -0.08261966 -0.08514976 -0.08635072 -0.0659796 -0.002757974 0.096410595 -0.09487677
0.057486378 0.018671788 0.108722575 0.012908764 0.05396626 -0.10835324 0.00091692805 -0.019715928
-0.095205 -0.06526244 -0.07230535 0.04003296 0.031015776 -0.068080895 0.09423221 0.10353962
0.023136444 0.07376636 0.060683034 -0.045453027 0.005760774 0.026411362 -0.062006563 0.08248051
0.071518086 -0.058435548 0.10122625 -0.084093556 -0.09929497 0.07825429 0.10168161 -0.04228136
-0.013496518 0.10292382 0.086412005 0.025536649 -0.0060419813 -0.00956399 0.06373265 0.022089072
0.0813374 -0.03500182 0.09045523 -0.011847749 0.0620796 0.058472045 -0.09099707 -0.080645606
0.08516546 0.0684822 0.051440887 -0.006867878 -0.04355119 -0.07832743 0.055251844 0.014143072
-0.011441499 0.006911084 0.0839159 -0.07571794 0.050887145 -0.036141165 0.08240812 0.012474589
-0.032088853 0.03873249 0.0018252283 -0.10623113 -0.018074825 0.06690364 0.0212624 0.036821805
-0.048998594 -0.03225512 -0.060467444 0.029179998 0.06437784 0.099415965 0.028552435 0.10379393
-0.07646486 -0.020278163 0.09170494 0.06845545 0.095495634 -0.022431023 -0.08117199 -0.06669924
-0.063202515 0.069859736 0.058051296 -0.028551757 -0.054055247 0.029993393 0.091385774 0.08471901
-0.0909963 0.07412996 -0.07278885 -0.0864295 0.09113865 0.04394824 0.04757195 -0.032302283
0.07607863 -0.09959563 -0.06179648 -0.09676628 0.04786312 -0.096462175 -0.06521944 0.083555005
-0.100168996 0.019981183 -0.05736778 0.064295985 -0.0448879 -0.0824701 -0.08574615 0.038795926
-0.06739028 0.03750249 -0.01704014 -0.07940762 -0.10293722 -0.054406196 0.047446452 0.079771765
0.078865774 -0.0054121315 0.062298693 0.07336136 -0.015716493 -0.02394393 0.07579031 -0.038320243
-0.026094772 -0.040221356 -0.019790247 0.09983834 -0.07265422 -0.020023368 0.06772793 -0.05306656
-0.041037843 0.042370073 -0.039124794 -0.0906146 -0.05982331 0.055927925 -0.10116092 0.08319942
-0.02904097 0.088898264 -0.08645465 0.07058311 0.0535061 0.063319124 0.08322755 0.044628747
0.03094653 0.040916316 -0.015246272 -0.056646567 -0.060339794 0.0041561797 0.06146989 -0.066343725
-0.08789121 -0.068205565 0.055714972 -0.00605347 -0.0040144026 -0.09121604 -0.09481804 0.014855094
-0.0896744 0.008276068 -0.015104234 0.013789721 0.069504835 0.020948373 -0.0805179 -0.10790054
-0.0777304 -0.10551171 -0.08672219 -0.031023234 0.060273223 0.08353574 -0.0891632 -0.09721756
-0.012539297 0.012387328 -0.036757648 0.08938477 -0.023211025 0.10055653 -0.076335445 -0.09214601

fc3.bias f4 [10]
00000000: 3cd2 a83c d10d b9bd 0f3c d23d 305b 8dbb
00000010: be33 1f3d 5824 bcbd ca2b 1c3d faef a2bd
00000020: 30d0 473c 3656 73bd
0.02060806 -0.090358384 0.102653615 -0.004313849 0.038867705 -0.091866195 0.038127698 -0.07955928
0.012195632 -0.05940839
